…
2019-07-29 05:32:56.774907: I tensorflow/core/grappler/devices.cc:60] Number of eligible GPUs (core count >= 8, compute capability >= 0.0): 0 (Note: TensorFlow was not compiled with CUDA support)
2019-07-29 05:32:56.775048: I tensorflow/core/grappler/clusters/single_machine.cc:359] Starting new session
2019-07-29 05:32:56.778951: E tensorflow/core/grappler/grappler_item_builder.cc:637] Init node conv1d/kernel/Assign doesn't exist in graph
INFO: Initialized TensorFlow Lite runtime.
Model: "sequential"
_________________________________________________________________
Layer (type)                 Output Shape              Param #   
=================================================================
conv1d (Conv1D)              (None, 126, 32)           896       
_________________________________________________________________
conv1d_1 (Conv1D)            (None, 124, 64)           6208      
_________________________________________________________________
dropout (Dropout)            (None, 124, 64)           0         
_________________________________________________________________
max_pooling1d (MaxPooling1D) (None, 62, 64)            0         
_________________________________________________________________
conv1d_2 (Conv1D)            (None, 60, 128)           24704     
_________________________________________________________________
max_pooling1d_1 (MaxPooling1 (None, 30, 128)           0         
_________________________________________________________________
flatten (Flatten)            (None, 3840)              0         
_________________________________________________________________
dense (Dense)                (None, 50)                192050    
_________________________________________________________________
dense_1 (Dense)              (None, 6)                 306       
=================================================================
Total params: 224,164
Trainable params: 224,164
Non-trainable params: 0
_________________________________________________________________
None
****************************************
Model: "sequential"
_________________________________________________________________
Layer (type)                 Output Shape              Param #   
=================================================================
conv1d (Conv1D)              (None, 126, 32)           896       
_________________________________________________________________
conv1d_1 (Conv1D)            (None, 124, 64)           6208      
_________________________________________________________________
dropout (Dropout)            (None, 124, 64)           0         
_________________________________________________________________
max_pooling1d (MaxPooling1D) (None, 62, 64)            0         
_________________________________________________________________
conv1d_2 (Conv1D)            (None, 60, 128)           24704     
_________________________________________________________________
max_pooling1d_1 (MaxPooling1 (None, 30, 128)           0         
_________________________________________________________________
flatten (Flatten)            (None, 3840)              0         
_________________________________________________________________
dense (Dense)                (None, 50)                192050    
_________________________________________________________________
dense_1 (Dense)              (None, 6)                 306       
=================================================================
Total params: 224,164
Trainable params: 224,164
Non-trainable params: 0
_________________________________________________________________
None
keras-CNN
running {'id': '1', 'dataset': 'UCI_HAR_NN', 'model': 'keras-CNN'}
{'id': '1', 'dataset': 'UCI_HAR_NN', 'model': 'keras-CNN'}
Epoch 1/10
  32/7352 [........................
…
2019-07-29 05:35:46.199409: I tensorflow/core/grappler/devices.cc:60] Number of eligible GPUs (core count >= 8, compute capability >= 0.0): 0 (Note: TensorFlow was not compiled with CUDA support)
2019-07-29 05:35:46.199682: I tensorflow/core/grappler/clusters/single_machine.cc:359] Starting new session
2019-07-29 05:35:46.203895: E tensorflow/core/grappler/grappler_item_builder.cc:637] Init node conv1d/kernel/Assign doesn't exist in graph
Model: "sequential"
_________________________________________________________________
Layer (type)                 Output Shape              Param #   
=================================================================
prune_low_magnitude_conv1d ( (None, 126, 32)           1762      
_________________________________________________________________
prune_low_magnitude_conv1d_1 (None, 124, 64)           12354     
_________________________________________________________________
prune_low_magnitude_dropout  (None, 124, 64)           1         
_________________________________________________________________
prune_low_magnitude_max_pool (None, 62, 64)            1         
_________________________________________________________________
prune_low_magnitude_conv1d_2 (None, 60, 128)           49282     
_________________________________________________________________
prune_low_magnitude_max_pool (None, 30, 128)           1         
_________________________________________________________________
prune_low_magnitude_flatten  (None, 3840)              1         
_________________________________________________________________
prune_low_magnitude_dense (P (None, 50)                384052    
_________________________________________________________________
prune_low_magnitude_dense_1  (None, 6)                 608       
=================================================================
Total params: 448,062
Trainable params: 224,164
Non-trainable params: 223,898
_________________________________________________________________
None
****************************************
Model: "sequential"
_________________________________________________________________
Layer (type)                 Output Shape              Param #   
=================================================================
conv1d (Conv1D)              (None, 126, 32)           896       
_________________________________________________________________
conv1d_1 (Conv1D)            (None, 124, 64)           6208      
_________________________________________________________________
dropout (Dropout)            (None, 124, 64)           0         
_________________________________________________________________
max_pooling1d (MaxPooling1D) (None, 62, 64)            0         
_________________________________________________________________
conv1d_2 (Conv1D)            (None, 60, 128)           24704     
_________________________________________________________________
max_pooling1d_1 (MaxPooling1 (None, 30, 128)           0         
_________________________________________________________________
flatten (Flatten)            (None, 3840)              0         
_________________________________________________________________
dense (Dense)                (None, 50)                192050    
_________________________________________________________________
dense_1 (Dense)              (None, 6)                 306       
=================================================================
Total params: 224,164
Trainable params: 224,164
Non-trainable params: 0
_________________________________________________________________
None
keras-RNN
running {'id': '3', 'dataset': 'UCI_HAR_NN', 'model': 'keras-RNN'}
{'id': '3', 'dataset': 'UCI_HAR_NN', 'model': 'keras-RNN'}
Epoch 1/10
  32/7352 [........................
…
2019-07-29 05:36:25.048220: I tensorflow/core/grappler/devices.cc:60] Number of eligible GPUs (core count >= 8, compute capability >= 0.0): 0 (Note: TensorFlow was not compiled with CUDA support)
2019-07-29 05:36:25.048467: I tensorflow/core/grappler/clusters/single_machine.cc:359] Starting new session
2019-07-29 05:36:25.053334: E tensorflow/core/grappler/grappler_item_builder.cc:637] Init node conv1d/kernel/Assign doesn't exist in graph
Model: "sequential"
_________________________________________________________________
Layer (type)                 Output Shape              Param #   
=================================================================
prune_low_magnitude_conv1d ( (None, 126, 64)           3522      
_________________________________________________________________
prune_low_magnitude_conv1d_1 (None, 124, 64)           24642     
_________________________________________________________________
prune_low_magnitude_dropout  (None, 124, 64)           1         
_________________________________________________________________
prune_low_magnitude_max_pool (None, 62, 64)            1         
_________________________________________________________________
prune_low_magnitude_flatten  (None, 3968)              1         
_________________________________________________________________
prune_low_magnitude_dense (P (None, 100)               793702    
_________________________________________________________________
prune_low_magnitude_dense_1  (None, 6)                 1208      
=================================================================
Total params: 823,077
Trainable params: 411,650
Non-trainable params: 411,427
_________________________________________________________________
None
****************************************
Model: "sequential"
_________________________________________________________________
Layer (type)                 Output Shape              Param #   
=================================================================
conv1d (Conv1D)              (None, 126, 64)           1792      
_________________________________________________________________
conv1d_1 (Conv1D)            (None, 124, 64)           12352     
_________________________________________________________________
dropout (Dropout)            (None, 124, 64)           0         
_________________________________________________________________
max_pooling1d (MaxPooling1D) (None, 62, 64)            0         
_________________________________________________________________
flatten (Flatten)            (None, 3968)              0         
_________________________________________________________________
dense (Dense)                (None, 100)               396900    
_________________________________________________________________
dense_1 (Dense)              (None, 6)                 606       
=================================================================
Total params: 411,650
Trainable params: 411,650
Non-trainable params: 0
_________________________________________________________________
None
keras-RNN
running {'id': '4', 'dataset': 'UCI_HAR', 'model': 'SVC'}
{'id': '4', 'dataset': 'UCI_HAR', 'model': 'SVC'}
SVC
running {'id': '5', 'dataset': 'UCI_HAR', 'model': 'KNeighborsClassifier'}
…
